mo-works/action-recognition/converted_model.tflite (tflite, 976748 bytes, 15 tensors)

arith.constant3 f4 [3, 32]
000000 07 65 96 be f5 3c f5 3d 33 df cf 3e f5 c7 c9 bd
       -0.29373953 0.11974517 0.40599975 -0.09852592
000010 82 1d a8 be f0 13 bf be 33 a3 a1 3e 72 1c 6e bd
       -0.32835013 -0.373199 0.31569824 -0.058132596
000020 e5 cd cf bd ff 9d 9f 3e 30 14 8d be 95 2d 9e 3d
       -0.10146693 0.3117523 -0.27554464 0.07723538
000030 61 60 a9 3e af 1a 1b bd 0c 91 8f 3e 06 30 0e 3e
       0.33081344 -0.037867244 0.2804035 0.13885507
000040 1f 12 c1 3e 3d ae f4 3d 1b e6 31 be af 19 b6 3e
       0.37709138 0.11947296 -0.17372935 0.3556647
000050 0f 17 9b be 84 5a 04 be e6 86 66 3e 53 87 97 be
       -0.3029103 -0.12925154 0.22512397 -0.29595432
000060 35 71 74 3d 63 52 40 3e 26 d2 b2 be 5b 9a 8a be
       0.059678275 0.18781428 -0.34925956 -0.2707089
000070 30 39 bd 3d ba 63 8e be e2 94 09 3e e3 cd 3c 3e
       0.09239423 -0.2781046 0.134357 0.18437915
000080 56 b5 9a 3e fd 62 98 bd e1 11 b8 bd 03 03 1f be
       0.30216473 -0.074407555 -0.08987785 -0.15528493
000090 b5 7b cd 3e 0f 4a b6 be 5c b8 ac be ce 9e 9c 3e
       0.40133443 -0.35603377 -0.33734405 0.30589908
0000a0 68 e1 bb 3e f8 86 b9 be 79 bd 81 bd 98 59 93 3e
       0.3669541 -0.36235785 -0.06334967 0.28779292
0000b0 28 7e 29 bb d6 76 6b 3e 60 3b d5 be ef 6f b9 be
       -0.0025862549 0.22994551 -0.41646862 -0.3621821
0000c0 d3 d4 21 be d8 44 89 be c4 95 02 3e 4f f6 e3 3d
       -0.15803842 -0.26810336 0.12752444 0.11130964
0000d0 50 0f 0d 3c 9e 5d ad be 80 a0 9c 3e 35 00 07 bc
       0.008609608 -0.33860487 0.30591202 -0.008239795
0000e0 a1 c5 3d 3e b5 fd a9 be b6 22 6a 3e a3 d0 c8 bc
       0.1853242 -0.33201376 0.22864804 -0.024513548
0000f0 50 9b 29 3d a0 3c 82 3e 16 57 3a be da d4 c8 be
       0.041407883 0.25436878 -0.18197283 -0.39224893
000100 8c f5 84 3e ae 35 b0 3e 55 cf 13 3e d9 65 24 3e
       0.25968587 0.34415954 0.1443456 0.16054477
000110 d7 88 bf 3e 8c 54 2d be 01 79 4d 3e fe 49 be bc
       0.37409088 -0.16926783 0.2006569 -0.023228642
000120 70 97 20 3d 24 ac 43 be 9b c7 35 be 0f 7e 9a bd
       0.039206922 -0.19108635 -0.17751925 -0.07543575
000130 30 84 83 be a6 10 86 3e 3e 4a fd bd 5c d7 1a 3d
       -0.2568679 0.26184577 -0.12367676 0.03780304
000140 08 ba c2 be 1c f7 4c 3e 47 ff 8f be 7f 6f 91 be
       -0.38032556 0.2001614 -0.2812445 -0.28405377
000150 bd 67 34 be 88 0e 9b be f3 10 f0 3d 7e 19 9e 3e
       -0.17617698 -0.30284524 0.11721983 0.30878824
000160 8b 79 84 be ea ec 80 be 98 0c d1 3e a7 a6 7b 3d
       -0.2587398 -0.2518075 0.4082992 0.06143823
000170 79 be 9d 3e d0 65 25 bd 1b 0f 14 3e 2c 8b 70 3e
       0.30809382 -0.0403803 0.14458887 0.2349059

arith.constant4 f4 [32, 64]
000000 5c b2 6e be 08 1b e7 bd 90 75 2e be fe 99 98 3d
       -0.23310226 -0.11284453 -0.17037034 0.07451247
000010 b8 18 47 be aa cc 3d 3e 80 db a5 3c 7c 81 e4 bd
       -0.19443023 0.18535104 0.020246267 -0.1115751
000020 69 f4 37 3e d8 d2 1c be ee 82 2c 3e a4 84 b4 3a
       0.17964329 -0.15314806 0.1684682 0.001377244
000030 57 d6 f8 bd 10 e8 fa 3d a7 ac f8 3d 70 5b 09 bd
       -0.12150257 0.12251294 0.12142306 -0.033534467
000040 24 28 5c 3e 0f 38 05 3e 4a 2f 18 be 9d 34 f8 bc
       0.21499687 0.13009666 -0.1486179 -0.030298525
000050 c0 c8 5c 3e 7c 47 3f be 3c 71 7c 3e 44 cb 12 be
       0.21560955 -0.18679613 0.2465257 -0.14335352
000060 60 d2 17 be 40 97 73 3e 74 9a 1e be 2c ca c0 3d
       -0.14826345 0.23788166 -0.15488607 0.09413561
000070 28 5c b7 bd 41 27 66 be 08 f1 3b 3e 49 69 fc bd
       -0.08953124 -0.22475912 0.18353665 -0.12324769
000080 97 65 28 bd 7c 2f 29 3e ef cc 2f 3c a5 2b 34 be
       -0.04111251 0.1652202 0.010730012 -0.17594774
000090 ce e5 ef bd 7a 3c 6c 3e 3a e0 e9 3c 35 5c 1f bd
       -0.11713754 0.23069945 0.028549302 -0.038906295
0000a0 0a 03 20 be 0c dc 01 be 59 fa 15 3e 98 d6 fc bd
       -0.1562616 -0.12681597 0.14646281 -0.12345618
0000b0 1e eb 74 3c f9 1d 73 3e 77 2c e8 bd 66 7c b4 3c
       0.014948634 0.23741902 -0.11336606 0.022031974
0000c0 b9 9c b6 bd ef 71 61 bd 78 4c 9a 3d f4 44 62 be
       -0.08916611 -0.055040296 0.075341165 -0.22096616
0000d0 21 59 40 be 27 f7 94 3d e0 fa 37 3e 88 ca 83 3d
       -0.18784 0.07273703 0.17966795 0.06435114
0000e0 28 2f 7b be 49 a9 27 3d 30 64 94 3d f4 e4 83 be
       -0.24529707 0.040932927 0.07245672 -0.25760615
0000f0 70 c5 04 3d fd 44 fc 3d 18 be 60 be b7 9b 8a bc
       0.032414854 0.12317846 -0.21947515 -0.016919954
000100 3a df 10 bd 51 1e f7 bd bb f8 08 3e da 94 0e 3d
       -0.035369135 -0.12066329 0.13376133 0.034809925
000110 24 19 1b be 7e ae 0b 3e 85 c1 3a be 8f 55 ec bd
       -0.15146309 0.13640782 -0.18237884 -0.115397565
000120 7e 3e 0c 3e 33 fa d9 bd 35 18 66 be c3 29 b7 3d
       0.13695714 -0.10643425 -0.22470172 0.08943512
000130 80 17 1e be 07 b4 9f 3d 72 49 21 3e bb 09 4e be
       -0.15438652 0.07798009 0.15750673 -0.201209
000140 e7 80 2b 3e 2a 57 69 3d 57 20 2c 3e 28 c7 62 3e
       0.16748391 0.05696789 0.16809212 0.22146285
000150 40 6e 45 3e b6 16 01 be 41 ac 7b be 79 bf 0d 3d
       0.19280338 -0.1260632 -0.24577428 0.03460643
000160 ef 6d e9 bc cf ab b8 bd 9d 64 7c be 48 e8 08 3e
       -0.028494803 -0.09017145 -0.24647756 0.13369858
000170 7e c3 55 bd e9 4c c4 3d e8 c1 c9 bd 51 97 0f be
       -0.05218839 0.09584982 -0.09851438 -0.14022566
000180 56 69 2e 3e 17 49 ba 3d c0 28 1a 3e e2 05 70 3e
       0.1703237 0.09095972 0.15054607 0.23439744
000190 e8 bf 36 bd 92 1d 57 be 37 5a 5b 3e 6e 57 6f be
       -0.04461661 -0.21007374 0.21421133 -0.23373196
0001a0 ae 76 ee 3d ab 83 3e 3e e8 26 6c 3e 2e 1f 27 be
       0.1164373 0.18604915 0.23061717 -0.16320488
0001b0 bf ee 6f 3e c4 51 54 be f6 c4 4c 3e 9a 66 31 bd
       0.23430918 -0.20734316 0.1999701 -0.04331074
0001c0 18 ee 4f 3e b6 7f 5a 3e 39 b5 08 3e 4d ea fb 3d
       0.2030567 0.2133778 0.13350381 0.12300549
0001d0 93 4a 56 be ae 40 4b 3e 9b 47 1d be b1 20 68 3c
       -0.20926885 0.19848892 -0.15359347 0.0141679505
0001e0 18 f7 f9 bd 7a 1b 2a 3c db ea ea 3d 4a b2 4d 3e
       -0.122053325 0.0103825275 0.114705764 0.20087543
0001f0 5e 24 0b be 28 af 8c bc 4d d9 13 bd b1 a1 74 3e
       -0.13588092 -0.017173365 -0.036095906 0.23889805
000200 b3 6b d4 3d ec cf 45 be b7 d7 57 be 52 1e 51 3a
       0.103721045 -0.19317597 -0.21078382 0.00079772354
000210 08 42 d9 3d 3b 00 6c be 90 96 7f be fb e5 cc bd
       0.106082976 -0.23046963 -0.24959779 -0.10004803
000220 06 32 7b bd ec a7 3c bd 10 2a d1 3d a4 41 7e be
       -0.061327003 -0.04605858 0.10213101 -0.24829727
000230 52 44 0b 3e 86 7d b0 3c 29 74 73 3e 28 74 71 3e
       0.13600281 0.02154423 0.2377478 0.23579466
000240 87 7c 18 3d e7 70 ae 3d 16 20 4c bc 97 c6 2d bc
       0.037228134 0.08517628 -0.012458822 -0.01060643
000250 9c 20 06 3e 0a 00 3a be 30 ee 7b 3e ce db f5 bc
       0.13098377 -0.18164077 0.2460258 -0.030012038
000260 0c 4a 80 be 8a 20 27 3e 8f 23 98 3d 4a cc 4a be
       -0.25056493 0.16321006 0.07428657 -0.19804493
000270 1f 79 2d be 30 24 7b 3e 6a 8d 12 3e ff 00 41 3e
       -0.16940735 0.24525523 0.14311758 0.18848036
000280 be a5 91 3d e5 2a 2e be f1 96 14 bd ce e1 52 3e
       0.07111691 -0.1700855 -0.03627676 0.2059395
000290 83 e3 36 3e 46 52 72 3e dc 2d 42 be 91 48 68 bc
       0.17860226 0.23664197 -0.18962806 -0.014177457
0002a0 f2 68 40 3e b5 c4 b2 bd 9f ee a9 bc f2 73 62 bd
       0.18790033 -0.08728925 -0.020743666 -0.055286355
0002b0 6c 93 8a 3c 12 e2 79 3e 0b c8 b6 bd 7c a7 fa 3d
       0.016916 0.24402645 -0.08924874 0.12238976
0002c0 dd 4f b1 bc 16 3c 2d 3e 81 56 0f be b9 1b 5f 3e
       -0.021644527 0.16917452 -0.13997842 0.21787919
0002d0 c9 57 62 be 04 5c 31 bd 8a 6e a2 3b 39 f0 67 bd
       -0.221038 -0.043300644 0.004957025 -0.05662558
0002e0 c6 04 37 be f3 9b 60 3e 8f 66 e9 bd 30 8e 35 3c
       -0.17872915 0.2193449 -0.113965146 0.011081263
0002f0 4d f3 13 3e a2 18 d0 bd 64 8f 15 be 20 10 90 3d
       0.1444828 -0.10160948 -0.1460548 0.070343256
000300 f0 00 44 3e f1 d1 8c bd f4 ed 3f be fc 05 1e 3e
       0.19140983 -0.06875981 -0.18743116 0.1543197
000310 40 c5 68 be 07 b8 b5 bd 5c 7e 4e 3e 80 78 f9 3d
       -0.22731495 -0.08872991 0.2016539 0.12181187
000320 28 15 68 be 40 4c f0 3c e0 bb c8 3d ed c0 7f bd
       -0.2266432 0.029333234 0.09801459 -0.062439848
000330 00 d5 07 bb 1f db 50 be d3 d7 15 3e 2a f5 4a be
       -0.0020726323 -0.20396088 0.14633112 -0.19820085
000340 d0 3b 3f 3e 1b 96 2c be 74 e2 b5 3d 4e 78 8f 3d
       0.1867516 -0.16854136 0.08881083 0.07005368
000350 e0 e2 c5 3c 50 c8 17 bd 0b 52 a8 bc 40 0f 8c 3d
       0.024156034 -0.037056267 -0.020546934 0.06838846
000360 20 f2 7f bd 09 c7 bc 3d 2b a2 b6 bd 58 fb c6 3d
       -0.062486768 0.092176504 -0.0891765 0.09715909
000370 82 da 47 3e e3 53 40 bd 39 dc 40 be 4f 53 f2 3d
       0.19516948 -0.046955 -0.18834008 0.11832296
000380 59 21 17 3d 8c f1 17 3e 6b bb 5c bd 19 58 87 3c
       0.036897037 0.14838237 -0.053889673 0.0165215
000390 59 77 6c be 5f d5 f1 3d c7 30 ec bd 85 dc de 3d
       -0.23092403 0.118082754 -0.11532741 0.108819045
0003a0 30 65 12 be 17 78 ac bc 45 2f 2f be db ac a4 3d
       -0.14296412 -0.021053357 -0.17107876 0.08040782
0003b0 9e 37 e2 bd a1 42 0e be 18 48 2a be cd 17 2c bd
       -0.110457644 -0.13892604 -0.16629064 -0.042014886
0003c0 94 1a 01 3d e7 59 da 3d b0 51 0e be d9 64 6f be
       0.031519488 0.10661679 -0.13898349 -0.23378314
0003d0 3e 8b 09 3e 48 ac fe bd d9 e6 ae 3d 58 b7 57 3e
       0.13432023 -0.12435204 0.085401244 0.21066034
0003e0 c0 cc d3 bc 74 1f cf 3b d5 33 51 3d a2 73 57 be
       -0.025854468 0.006320888 0.05107482 -0.21040204
0003f0 4b 20 cc 3c 5d 06 6b 3e 8a 3b 52 3e b7 50 44 bd
       0.024917742 0.22951646 0.20530525 -0.04792854

arith.constant5 f4 [64, 64]
000000 c9 68 3f bd 4e 92 07 be be ec 2f 3e d0 a5 1d be
       -0.04673079 -0.13239405 0.17180154 -0.15395284
000010 d3 e5 36 be 1e 60 83 bd 64 8d 95 3d 60 c1 81 bd
       -0.17861108 -0.06414817 0.07302359 -0.063357115
000020 4f 6e 52 be 94 43 28 3e b2 9a c6 3d 9d dc 4b be
       -0.20549892 0.16432029 0.096974745 -0.19908376
000030 bd 34 0d 3e 1f 3c c2 3d 8f 63 87 bd 6d 18 1b be
       0.1378965 0.094841234 -0.06610786 -0.15146036
000040 b6 5c 02 bc 09 b9 42 3e 03 c6 fa bd 73 d5 41 3e
       -0.007956674 0.19015898 -0.12244799 0.1892908
000050 51 cb d1 bd 39 6b 83 bc 49 f6 58 3e c9 b3 4b 3e
       -0.10243858 -0.016042339 0.211877 0.19892801
000060 de 36 45 3e d3 db 4b bc 9f f2 d8 3d c3 f3 13 3e
       0.19259211 -0.012442547 0.10593151 0.14448456
000070 41 72 58 be c7 9a 0f 3e 95 d7 44 be 54 64 54 be
       -0.21137334 0.14023887 -0.19222863 -0.20741397
000080 75 9c 3a 3e 86 93 ce bd 76 13 3d 3c 1e 2a 8b 3d
       0.18223746 -0.100867316 0.011540284 0.067951426
000090 e1 5e 49 3e 91 d7 64 3c ea e8 a0 bc 00 c0 cc bd
       0.196651 0.013967411 -0.019642312 -0.099975586
0000a0 5b 59 0d bd e6 67 a3 3c ca d4 9a bc 5f 29 0d 3e
       -0.034509044 0.019947004 -0.018900294 0.13785313
0000b0 8f 55 21 be 4c 4a 1a be 81 8c 4a be 59 08 d9 3d
       -0.15755294 -0.15067405 -0.1978016 0.10597295
0000c0 3e 5c 87 bd 56 15 94 bc b6 46 9e 3d cb 5f 60 bd
       -0.06609391 -0.01807658 0.07728331 -0.054778855
0000d0 d6 e8 f0 bd 9a 75 9b bd 62 42 2a 3e 42 26 9b bd
       -0.1176316 -0.0759079 0.16626886 -0.075756565
0000e0 ad ce da 3c f2 73 45 be 85 33 f8 bd 39 4d a9 bc
       0.026709879 -0.19282511 -0.121192016 -0.020666705
0000f0 0a 7b 8b 3d 78 cd b3 bd f5 92 4a 3e 1f 04 a3 3d
       0.06810577 -0.087794244 0.19782622 0.079597704
000100 43 9e 24 be 6b 1a 09 be ff af aa bd 11 fe 53 be
       -0.16075997 -0.13388984 -0.0833435 -0.20702387
000110 c3 e8 42 be 29 51 14 be d4 b0 cd 3d 9a 5b aa bd
       -0.19034104 -0.14484085 0.10043493 -0.08318253
000120 ab 28 9e 3d 10 a0 cd 3c a6 d7 06 3e d8 4d a9 3d
       0.077226005 0.025100738 0.13168201 0.08266801
000130 a9 6f ee 3b 5b 9e 0b bc 0a 3f 34 3c 4e ec 2a be
       0.0072764945 -0.008521642 0.011001358 -0.16691706
000140 51 58 48 be 07 ee 41 3e f2 78 2c 3e ab bb ca 3d
       -0.1956494 0.18938456 0.16843012 0.09899076
000150 07 62 0a bd da 5b 51 be 37 bf ff 3d 29 9a a1 bd
       -0.033784892 -0.20445195 0.12487643 -0.07890732
000160 bb a1 06 3e c3 71 b3 3d 02 c0 3b be 96 47 70 bb
       0.13147633 0.08761933 -0.18334964 -0.0036663762
000170 f7 1d c7 bb ed 5b 34 bd 9a 50 25 3e 81 fb 07 3e
       -0.00607657 -0.04403298 0.16144028 0.13279535
000180 2a 49 30 3e 69 43 41 bb 8c 65 41 3e d7 38 d3 3d
       0.1721541 -0.0029489642 0.18886393 0.10313576
000190 2f 51 2f be 82 b3 46 3e a7 ef 5c be 6a 86 0e 3e
       -0.17120813 0.19404414 -0.21575795 0.13918462
0001a0 48 99 be 3d ee 17 3e be df cd bd 3c 79 d8 2e 3e
       0.0930658 -0.18563816 0.023169456 0.17074765
0001b0 2c 1a c3 3d 25 6b 23 be e5 4d f3 3d 72 d9 b5 3d
       0.09526476 -0.15958841 0.118800916 0.08879365
0001c0 26 19 52 be d8 76 97 3c 99 3d 4d 3e a0 96 ce 3d
       -0.20517406 0.018489286 0.20043029 0.10087323
0001d0 a5 fb 12 be 76 1d 89 3c 67 27 12 3e 1a 80 93 bd
       -0.14353807 0.01673768 0.14272843 -0.07202168
0001e0 cf e2 33 3d f9 08 59 3d 3b a8 e8 bd 37 a9 43 bc
       0.043917473 0.052987073 -0.113602124 -0.011942199
0001f0 3d f0 27 3e a6 53 f7 3c b3 84 b5 bd 1c d5 2f 3d
       0.16400237 0.030191254 -0.08863201 0.042927846
000200 c2 d3 03 3d 4c 15 35 3e 30 1b bd 3c 96 ab c3 bc
       0.03218437 0.17683905 0.023084253 -0.02388553
000210 fb 08 0d 3e 72 d3 31 be 01 79 14 3e 50 9e 09 be
       0.13772957 -0.17365816 0.14499284 -0.13439298
000220 77 ee e2 3d 8e a3 c7 3d 2b f3 e1 3b 3e 51 56 be
       0.1108064 0.097479925 0.006895443 -0.20929429
000230 8a d3 36 3e bb 37 1a be d5 44 0d 3e a2 92 b2 3c
       0.17854133 -0.15060322 0.13795789 0.021798436
000240 9f 3d 1c be 48 73 5a be 06 87 2e 3e 19 16 b0 bd
       -0.15257882 -0.21333039 0.17043695 -0.08597965
000250 0c 71 05 be e6 10 1d 3e c4 60 46 3c b4 cb 2c bd
       -0.13031405 0.15338477 0.012108032 -0.042186454
000260 b4 63 25 bd 1a 99 21 be a8 03 2c bd 42 6c 06 be
       -0.040378287 -0.1578106 -0.041995674 -0.13127235
000270 34 03 a3 bd df bb 13 bd c3 c5 51 be fb 5c c4 3c
       -0.07959595 -0.03606784 -0.20485596 0.023970118
000280 c7 53 0d bd d3 e0 c7 bd 6a e1 14 3e ac 67 2d 3e
       -0.034503724 -0.09759679 0.14539114 0.16934079
000290 de f3 86 3d 38 af 80 bd 2b 73 e4 bd 97 cf 3b be
       0.06589483 -0.0628342 -0.11154779 -0.18340908
0002a0 62 cb f4 bd 69 3e 2b 3e be 39 2e bd 74 70 9f 3d
       -0.11952855 0.16723026 -0.042535536 0.077851206
0002b0 13 42 82 bc bc 21 06 3e d7 45 18 3e cf 48 02 3e
       -0.015900647 0.13098806 0.14870392 0.12723087
0002c0 73 6e 97 3d d3 c7 1a 3e 1b 2f 39 be c9 8c dd 3d
       0.073941134 0.1511529 -0.18084376 0.10817868
0002d0 7f 86 73 bd 15 36 d6 bd 5b f1 6f 3d 2a be 04 3e
       -0.059454437 -0.10459534 0.058579784 0.12963167
0002e0 4a 82 d4 3d 52 11 32 3e 58 7f 2b 3b b0 12 5b 3c
       0.10376413 0.1738942 0.0026168432 0.013371155
0002f0 e2 a5 e7 bb ec 1e 06 3c 8c 10 0f 3e 7a 69 dc 3d
       -0.0070693353 0.008186083 0.13971156 0.107623056
000300 c6 cb 21 bd 4a ff 2d 3e 50 77 77 3d 82 ab d3 bd
       -0.039500974 0.16991916 0.06041652 -0.10335447
000310 23 f5 b9 3d 46 26 30 be 42 35 92 3b 1f a9 6d be
       0.09079959 -0.172021 0.004461915 -0.23209046
000320 9d 6a d1 3b b8 a4 82 bc d3 3b 35 3e a4 75 5e 3e
       0.006390883 -0.015947685 0.17698602 0.21724564
000330 80 46 5a bd d9 26 cf bd a8 24 22 3e 03 c6 3e be
       -0.05328989 -0.101148315 0.15834296 -0.18630223
000340 0b 63 33 3e 47 4f 18 be 8a e3 2e bd f9 dd 08 3e
       0.1751825 -0.14873992 -0.042697467 0.13365926
000350 b1 2a 08 be 64 34 04 be c9 64 0e be 20 ed 8e bc
       -0.13297535 -0.1291061 -0.13905634 -0.017447054
000360 e0 2d 00 3e 88 37 14 bd 80 7a 46 3b 60 a1 47 3e
       0.125175 -0.03618577 0.0030285418 0.19495153
000370 5f a2 f6 3c 20 19 00 be f6 79 eb bd 81 ab 10 3e
       0.030106721 -0.12509584 -0.114978716 0.14127924
000380 5c 43 7d 3d 38 31 28 bd 6f f6 50 be 86 0a 11 be
       0.061831817 -0.041062564 -0.20406507 -0.1416417
000390 7b ff 60 3e 42 03 e7 3d c0 85 48 3e 95 6b 0e be
       0.21972458 0.11279918 0.19582272 -0.13908227
0003a0 53 69 5a 3d 0a 20 99 3d 04 00 b4 bd 8a 5c f2 3c
       0.0533231 0.07476814 -0.087890655 0.029585142
0003b0 ba 94 77 3d 47 86 ca bd 0a 4c 04 be fe 3b 29 be
       0.06044457 -0.098888926 -0.12919632 -0.16526791
0003c0 46 6c 0f 3e 47 df 97 bd 5d 2e 93 3d 33 f8 30 3d
       0.14006147 -0.07415634 0.071865775 0.04320545
0003d0 25 91 a2 3d 12 c4 a6 bd db c4 51 3e 34 8f 0f be
       0.0793784 -0.08142866 0.2048525 -0.14019471
0003e0 78 de 98 bd 11 b1 f3 3d cd 37 1e be 65 13 ba 3c
       -0.074643075 0.11899007 -0.15450974 0.022714326
0003f0 07 34 31 3e 2c d8 ab bd 8a e0 d9 3d ac fd 0e be
       0.17305003 -0.08390841 0.106385306 -0.13963956

arith.constant6 f4 [3]
000000 6b 1e dc 3b a1 c0 b4 3c 51 25 db bc
       0.0067174933 0.022064509 -0.026751192

arith.constant7 f4 [64]
000000 c8 b9 02 bc a6 5f 46 3c 82 74 5a bc d6 e3 8d 3c
       -0.007978864 0.012107765 -0.013333442 0.017320555
000010 22 f8 09 3c 2a c7 4f 3c a9 77 cd 3b 5e 0a 25 bc
       0.008420976 0.012681762 0.006270368 -0.0100732725
000020 dd 49 05 3d 2f b2 1e 3c 89 34 6f 3c d6 2a 85 3c
       0.032541145 0.009686037 0.014599928 0.016255777
000030 84 2c ed 3c a4 6d f5 3b d0 47 65 bb d0 fc ce 3c
       0.02895189 0.007489877 -0.003498543 0.025267035
000040 7b 0b 20 37 f6 29 76 3b 86 7d 8b 3c f0 84 0e bc
       9.539416e-06 0.0037561632 0.017027628 -0.008698687
000050 2c a0 99 bc e0 1b b2 3c ec d9 d9 ba 38 d2 0a bb
       -0.018753134 0.021741807 -0.0016620732 -0.002118243
000060 6e 15 2a bb a2 db 54 3c bf 62 a2 3c 4b cd fe bb
       -0.0025952714 0.012991818 0.019822476 -0.0077759377
000070 34 59 6e bc 3e 5a fe bb b5 0d 93 3c 17 3a 4f 3c
       -0.014547635 -0.0077622226 0.017950872 0.012648127
000080 ef 38 86 ba f1 bd 5c 38 a6 5b 32 bc ff db 5d bb
       -0.0010240356 5.2628984e-05 -0.0108861085 -0.0033853052
000090 75 36 61 3c a8 4f 0d bc be c9 e3 bc 02 32 3c 3c
       0.013745894 -0.008624949 -0.02780616 0.011486532
0000a0 1b de 7f bc 52 c2 44 3b 61 2d 4a bc b3 37 1d 3c
       -0.015616919 0.003002305 -0.012339921 0.009595799
0000b0 33 3f 82 bc b7 75 7c 3c a9 60 7b 3c 64 6c fc 3a
       -0.015899276 0.015408925 0.01534287 0.0019258377
0000c0 07 c2 25 bc c1 dc 8b bb e3 bb c4 bb 93 c5 31 bb
       -0.0101170605 -0.0042682593 -0.006003843 -0.002712582
0000d0 4f 13 9c bc 3d 9c d9 bc 02 22 47 bb 53 be d6 3c
       -0.019052176 -0.026563758 -0.003038526 0.0262138
0000e0 0c 51 63 bc ed fc c2 3a 70 da 99 bb 7a 06 e3 3c
       -0.013874304 0.0014876403 -0.004695229 0.02771305
0000f0 17 5f 12 bc 88 bb 6e bc 18 f7 49 bb 4f a8 65 bc
       -0.008933804 -0.014571078 -0.0030817445 -0.014017179

arith.constant8 f4 [32]
000000 5e a7 08 bc 57 ba cc bc 22 06 cd ba 16 af f1 bb
       -0.008340685 -0.024991198 -0.0015642087 -0.007375608
000010 3b d3 8c bb 12 c2 c8 bc 98 6d 7a bb 30 9d c6 ba
       -0.0042976416 -0.024506602 -0.0038212296 -0.0015153047
000020 46 42 48 3c 1a 06 0c bc 31 d0 8a 3c 8f 54 cf 3c
       0.012222832 -0.008546377 0.016944977 0.025308875
000030 e4 99 b8 3c 13 5c bf 3c 30 64 72 bb a3 77 7b bc
       0.022534318 0.023359334 -0.0036985986 -0.015348348
000040 d3 5f 76 3c 5e 43 fd 3b 1e f4 53 bc 75 0a a6 3c
       0.015037495 0.007728978 -0.01293662 0.020268658
000050 27 2c bd 3c f7 f4 a5 3b 82 db c1 3c fa c1 f4 bb
       0.023092343 0.0050646025 0.02366424 -0.007469413
000060 b7 32 d5 3c 30 5b ac 3b b3 80 1c 3b c1 95 84 bc
       0.02602516 0.005259894 0.0023880422 -0.01618469
000070 e4 6a 87 bc 9b fe 93 3c a8 0b bb bc 48 8b f7 bb
       -0.016530462 0.018065741 -0.022832707 -0.0075544454

arith.constant22 f4 [256, 258]
000000 a8 aa c2 3d 26 6b 6f bc 22 87 a8 bd 8d ce 8a bc
       0.09505206 -0.0146129485 -0.082288995 -0.016944194
000010 e3 75 53 3d 6c 7e 96 3d 09 db fb 3c 5d 06 a3 3d
       0.051626097 0.07348332 0.030744093 0.07960198
000020 f1 2e 83 bc 15 07 0f 3c 56 65 7c 3d 93 48 7d bd
       -0.016013594 0.008729716 0.06162008 -0.06183679
000030 4e 71 45 3d e9 31 91 3d aa 37 86 bd b3 4c 0e bd
       0.04820376 0.07089598 -0.06553586 -0.034741115
000040 02 43 84 bd da ee d8 3c 4d eb a5 3d 64 30 84 3c
       -0.06458093 0.02648108 0.08101521 0.016136356
000050 8d b9 26 3d 31 50 3f bb d3 84 d1 3c 0d 46 d0 bd
       0.0407043 -0.0029192085 0.02557603 -0.10169611
000060 9b c4 c3 bd 8d 18 65 3d 58 e3 ad bd a6 1e ae bd
       -0.09558984 0.055931617 -0.08490628 -0.085019395
000070 4c 6d 24 3d 07 4f a9 3c db a8 f8 3c 2c 39 ef bd
       0.040143296 0.020667566 0.030353954 -0.116808265
000080 00 5b 2c 3d 13 a3 4c 3b f5 9e 5a 3d 69 3c 29 3d
       0.042078972 0.003122513 0.05337425 0.041317377
000090 c6 2d c2 3d ce e9 f1 bc 9b 0d ba 3d bc 77 0c 3d
       0.09481387 -0.029530432 0.09084626 0.034293875
0000a0 ae bb 2b bd ed 5b c4 3d 17 8d 65 3d f8 9d 19 bd
       -0.041927032 0.09587846 0.056042757 -0.037504166
0000b0 82 68 b5 bd af 83 28 3d 18 2c a8 bb 07 66 ce bc
       -0.08857824 0.04114121 -0.0051322095 -0.025195135
0000c0 a5 eb 06 bd ff da c0 3d 4e a9 3f bc 31 d8 69 3d
       -0.032939572 0.0941677 -0.01169808 0.05709094
0000d0 5c b9 96 3d 19 3e bd 3d 48 e1 7f bd fa ca 86 bd
       0.07359573 0.0924036 -0.062470704 -0.065816835
0000e0 df 0a c3 3b c4 49 80 bd 70 dd cb 3d 01 79 55 3d
       0.0059522237 -0.0626407 0.09954345 0.05211735
0000f0 d4 14 c8 bd cf 77 cb bd 20 66 ac bd 6a 85 9e 3d
       -0.09769598 -0.09934961 -0.08417916 0.077402905
000100 50 9e e8 bd ee f9 77 3d ec b8 c6 3d a3 3b c1 3d
       -0.11358321 0.060541086 0.0970324 0.09435203
000110 52 28 ac 3d 3a a1 06 bc 21 22 d3 3d 5d 9f 95 ba
       0.08406128 -0.00821715 0.10309244 -0.0011415292
000120 7f 12 9e bd 45 0b 81 3c fd 2b 83 bd 60 68 9f bd
       -0.077183716 0.015752444 -0.064048745 -0.0778358
000130 96 d7 d5 bc 41 85 8b bd d4 1a cc 3d 56 7c ce 3d
       -0.026103776 -0.068125255 0.099660546 0.10082309
000140 c6 43 98 bd 75 99 e1 bd a0 c9 44 bd 2d 70 69 bb
       -0.07434802 -0.11015598 -0.048043847 -0.003561984
000150 18 f7 0e bd b9 09 ee bd 11 6b fa 3c f2 07 69 3d
       -0.034903616 -0.11622948 0.030568631 0.056892343
000160 59 26 e3 bd 4b 34 a7 bb 7e 26 49 bc cb 28 2a 3d
       -0.110912986 -0.0051026694 -0.012277244 0.04154281
000170 13 6b 77 bb c4 c1 01 bd c4 76 5a 3c 95 2f 9e 3d
       -0.003775303 -0.03167893 0.01333398 0.07723919
000180 db 8c 95 3d fa 6e 79 3d 13 17 3a 3d 7f a3 fd 39
       0.07302257 0.06089685 0.04543216 0.00048377734
000190 94 58 a1 3d 3f 8b 99 bd bb 79 e2 3d 74 81 fd 3c
       0.07878223 -0.07497262 0.110583745 0.030945517
0001a0 05 90 86 bc 20 e6 a3 bd 85 42 96 3c 83 9e 0e 3d
       -0.016426096 -0.08002877 0.018342266 0.034819137
0001b0 e8 81 99 bd 97 69 fa bc b6 2f 9b bd 26 9c 4d 3d
       -0.07495481 -0.030567927 -0.075774595 0.050197743
0001c0 93 83 fe bb 2b 2b 86 3d cc 84 c4 3d 91 5f 8b bc
       -0.0077671497 0.065512024 0.095956415 -0.017013343
0001d0 69 64 b5 bd 97 5e e7 bc fa 22 88 3d 6a eb 22 bd
       -0.08857042 -0.028243346 0.06647296 -0.03977529
0001e0 3d 75 b1 3d bc 0a 0e bd 44 1d 31 3c 28 b0 96 bc
       0.086649396 -0.034678206 0.0108102 -0.018394545
0001f0 1e 64 77 3c 86 48 21 bd ea 29 92 bd 70 a9 bd bc
       0.015099553 -0.039375804 -0.07136901 -0.023152083
000200 ee 61 1e 3d 91 b7 88 3c 1b bc a8 bd 39 37 ce 3c
       0.03866761 0.016689094 -0.08239003 0.025172817
000210 d3 56 96 bd 65 9d d8 3c 84 52 98 bd c2 7f 45 bd
       -0.07340779 0.026442239 -0.074376136 -0.048217542
000220 ba 5b bb bd 1e e8 38 bd 8f 1b c5 3d 77 ae 4e 3d
       -0.09148355 -0.04514324 0.09624397 0.05045935
000230 d6 71 3c 3d 59 63 98 bd ec d8 78 bc 4f ec d5 3d
       0.046007 -0.07440824 -0.015188437 0.10445463
000240 a5 e0 8c bd 76 b8 cd bd d9 44 24 bc 50 db 94 bd
       -0.06878785 -0.10044949 -0.01002618 -0.07268393
000250 e5 c2 d9 bb 5c 7b 82 3d 06 e8 8e bd 46 e8 c1 3d
       -0.0066455477 0.06371185 -0.06977849 0.09468131
000260 f5 fc a0 bb e2 10 0f 3d b5 14 9f bd 54 98 55 3d
       -0.0049129673 0.03492821 -0.077676214 0.052147225
000270 44 36 99 3c 4a d2 03 bc 2b d3 a3 3d 41 41 09 3d
       0.018702634 -0.008045742 0.079992615 0.033509497
000280 aa ea aa bd ab 94 a1 3d f3 1c 0c 3c c6 13 e2 3d
       -0.0834554 0.07889684 0.008551824 0.11038928
000290 7e 7e 19 3c bd 70 e3 3c 5d eb 84 3d aa 77 b6 bc
       0.009368537 0.027763719 0.064902045 -0.022273857
0002a0 a3 00 bd 3d e7 e1 6e bd 85 6a aa bd 71 f5 2d bc
       0.09228637 -0.058320906 -0.08321098 -0.0106176
0002b0 a6 f9 bb 3d 8d a9 9b 3d 53 bc 83 3d 42 88 a5 3d
       0.09178476 0.076006986 0.06432404 0.0808263
0002c0 f8 2c 51 3d f0 32 d1 3b 32 19 99 bd d8 e9 a9 3d
       0.051068276 0.006384246 -0.07475509 0.08296555
0002d0 53 b1 ea bd 9e 22 87 bd 6b 5e 9b 3d 7c 7c 85 bd
       -0.11459603 -0.065983996 0.07586368 -0.06517884
0002e0 45 a0 0b 3d b7 38 db bd d6 12 27 bd 5c 6c 9e 3c
       0.03408839 -0.10704177 -0.040789448 0.01933878
0002f0 06 7d 9d 3d 68 97 1c 3d c5 7f dd 3d 8c 2a b9 3c
       0.07689862 0.03823033 0.10815386 0.022603296
000300 a7 e2 aa bd f2 1b df 3d a1 2b 88 bd cc 4a 53 3d
       -0.08344012 0.10894002 -0.066489466 0.051585004
000310 15 50 d8 3d 1d e6 96 bd d9 4c 92 3c 5c 50 4d bc
       0.105621494 -0.073681094 0.01785891 -0.012531366
000320 de 8c 51 bd a3 0d 3f 3d 15 a4 5d 3c 7f b9 3a 3d
       -0.051159732 0.046643864 0.01352789 0.04558706
000330 74 be 0c bd 03 b2 38 bc 75 a7 54 3c fd 4c 78 bd
       -0.034361318 -0.01127291 0.012979378 -0.060620297
000340 5a 80 8a bd 4a 44 97 bd 12 36 65 bc 13 4f d4 3c
       -0.06762762 -0.07386072 -0.013989942 0.025916612
000350 e6 59 c7 3c 9b 87 6a bd a4 b7 39 bc 28 27 ff bb
       0.02433486 -0.05725823 -0.011335287 -0.00778665
000360 b0 68 e2 bc bd 29 c2 3d 34 09 74 3b f7 4d 83 bc
       -0.02763781 0.09480617 0.003723693 -0.016028387
000370 ed 64 9d bc 52 a1 9a 3d c3 87 23 3d a3 e5 b5 bc
       -0.019213164 0.07550301 0.039924394 -0.022204226
000380 7c cb db bd 8c 50 e8 3c df cf 39 bd 5d b4 aa bd
       -0.10732171 0.02835872 -0.045364257 -0.08335183
000390 9a d2 36 3d 5d 97 a8 bd a6 0e ff bb 45 cb 7e 3d
       0.04463444 -0.08231995 -0.0077837287 0.06220557
0003a0 7f e7 21 bd c0 5d 0e 3d 8b 5e 49 bd 88 0d cb bd
       -0.039527413 0.034757376 -0.04916243 -0.0991469
0003b0 83 7a d2 bd 1b 09 1a b9 29 aa 07 3d 77 73 1b bc
       -0.102772735 -0.00014689977 0.03312126 -0.009487978
0003c0 2b bc af 3d 37 97 a9 3d 47 0a b3 3d d8 43 e8 bc
       0.08580812 0.08280795 0.087421946 -0.028352663
0003d0 76 a1 84 bc a1 6d 8c 3d 4e 14 73 3c 08 a2 aa 3d
       -0.016190272 0.068568476 0.014836384 0.08331686
0003e0 03 75 c8 3d 19 12 7e bc 39 89 c0 3d 81 78 b6 bd
       0.09787943 -0.0155072445 0.09401173 -0.08909703
0003f0 e1 7d 43 bd 93 b9 a6 bd 8b c5 db bc 42 41 48 3d
       -0.04772747 -0.08140864 -0.026827594 0.04889036

arith.constant23 f4 [256, 64]
000000 75 ae 01 3d c3 14 b5 ba 56 c3 6e 3d 8d c8 29 bd
       0.031660516 -0.0013815392 0.058291756 -0.041451026
000010 d7 2a 93 3c 08 5f 73 bc d9 23 45 bc 84 9a 1a be
       0.017964764 -0.0148542 -0.0120324725 -0.15098006
000020 7e f8 44 bd 22 cb 99 bd 56 f9 ba bc 1f d6 89 3d
       -0.048088543 -0.07509448 -0.02282397 0.067302935
000030 a7 bb 27 3d b1 3a 01 3e ff c9 e2 bb ba 8a 1f bd
       0.040950444 0.12620045 -0.0069210525 -0.03895066
000040 78 45 ea bb ec b7 c8 bd 67 b1 a1 bd e2 ff f3 3c
       -0.0071493946 -0.09800705 -0.07895165 0.0297851
000050 4d a8 0d bb 08 d9 0f bd d6 6a a9 3c 4d 5a ee bc
       -0.0021615208 -0.035119087 0.020680826 -0.029095793
000060 1e 31 75 bc 30 8f 0c 3d e0 1c c7 bd 90 d5 b6 3d
       -0.014965324 0.03431624 -0.09722304 0.089274526
000070 dd c8 d8 3c 4d 74 e7 bc c5 25 ab 3d 6e f9 af bd
       0.026462967 -0.028253699 0.08356813 -0.08592497
000080 2a 0e d2 3b 76 84 84 bd f0 bb 88 bc 02 f0 39 3d
       0.00641038 -0.064705774 -0.016691178 0.045394905
000090 ef 05 3c 3d bd 4a 1e 3d 42 b7 d1 3c ec 03 d1 3d
       0.045904096 0.038645495 0.02560008 0.10205826
0000a0 6b 6c 8f 3d 70 90 a5 bb da ad 32 bd 00 5f 0c 3d
       0.07003101 -0.0050526187 -0.04362283 0.034270287
0000b0 3f 22 a9 3d 48 d3 04 bd ee 40 a3 3d a5 71 a5 bd
       0.08258485 -0.032428056 0.07971369 -0.080783166
0000c0 64 55 04 bc e6 4a 20 bd b1 9d 81 bc d0 2a b0 3d
       -0.008076999 -0.03913393 -0.015822263 0.08601916
0000d0 04 c6 0c 3c 42 8d 83 bd b8 6a 80 3c ad b8 ef 3c
       0.0085921325 -0.06423427 0.015675887 0.029262865
0000e0 8c 99 49 3d 53 ce 0d be 32 f9 5b be db d9 e0 bd
       0.0492187 -0.13848238 -0.21481779 -0.10979053
0000f0 78 a3 88 bc d1 bd d8 3c d9 3c 39 bd 16 cb 87 bd
       -0.01667951 0.026457699 -0.045224044 -0.066305324
000100 4d a3 b2 bb 4f 8c 1a bd fa 29 c5 bc dd f0 9a 3d
       -0.005451596 -0.037731465 -0.024067868 0.07565472
000110 59 be a7 bc d9 69 fb 3c 7f ff 6b bd 68 63 bf 3b
       -0.020476507 0.03069012 -0.057616707 0.0058407076
000120 55 2f ed 39 7d 5d df bc 6d ef 27 be ab 29 95 3d
       0.00045239428 -0.027266258 -0.16399927 0.07283338
000130 fb 15 82 bd 26 f1 68 bd bf 67 bb bd f5 9a 08 3e
       -0.06351849 -0.056870602 -0.09150647 0.13340361
000140 1d 1e 00 3d 07 c2 37 3d 22 a1 53 ba cd 58 51 bd
       0.03127872 0.044862773 -0.0008073022 -0.051110078
000150 67 1c 5e 3d bf 99 a4 bd 0e d3 28 3d fa af 80 bc
       0.054226305 -0.08037137 0.041216902 -0.015708912
000160 fa 34 9c bb f2 dc 7c bd e1 ae b0 bd ea 97 c1 3b
       -0.0047670575 -0.061734147 -0.086271055 0.005908002
000170 84 54 79 3c d0 9b bc bd dd 49 8f 3c 08 05 91 bd
       0.015217904 -0.092094064 0.017491275 -0.07081038
000180 7a bc a2 bd 99 10 90 bd 10 9d 7e bd f8 de 0f bd
       -0.07946105 -0.07034416 -0.062161505 -0.03512475
000190 10 7e 97 bd 47 7a 86 bd f5 e8 8e 3b ef e0 32 3d
       -0.073970914 -0.06566291 0.0043612667 0.043671545
0001a0 5a 04 00 be a8 82 00 bd 6f c5 81 3d 56 58 b2 bd
       -0.1250166 -0.031374604 0.063364856 -0.08708255
0001b0 a4 a1 3d bd 7a 8b 44 bd 6c 86 0b 3d 3f 34 c9 3d
       -0.04629673 -0.047984578 0.03406374 0.09824418
0001c0 74 ee 0d 3d dd f3 5e bd bc 69 0c be a6 3c 8f 3d
       0.034651235 -0.054431785 -0.1371221 0.0699399
0001d0 06 2f 0c 3d a2 aa 42 bc 7b 5d a5 3d 47 89 40 3d
       0.034224533 -0.011881502 0.080744706 0.047005918
0001e0 a3 54 18 bd be b9 83 bd 62 2e b6 bc df 1e 9b bc
       -0.03719009 -0.06431912 -0.022238914 -0.018935619
0001f0 09 15 29 3c a1 07 7f bc 49 fd a6 bc 11 56 23 bc
       0.010319957 -0.015565784 -0.020384448 -0.00996925
000200 fc 0a 58 bd 6f 4b 8d bc fb d7 a5 bd 31 88 9d bc
       -0.05274485 -0.017247884 -0.08097836 -0.01922998
000210 f4 3d 8e bd 60 8c 85 3d f4 f8 92 3d e5 22 97 3d
       -0.0694541 0.06520915 0.0717639 0.073797025
000220 95 c3 7f 3d e5 d3 a8 bc 42 4d e8 bc 9d 6c 47 3d
       0.06244238 -0.020608852 -0.028357152 0.048687566
000230 ae 39 9d bc 44 3d 21 3d 45 4a 80 3d 21 94 13 3e
       -0.019192543 0.039365068 0.06264166 0.14411975
000240 07 01 42 bd c4 f4 23 3d 29 3b 18 bd 82 6e 15 3d
       -0.04736426 0.04002835 -0.037165795 0.03648234
000250 29 28 eb 3c ba f9 35 3c da ed 70 3b 2b 9f 4e bd
       0.028705673 0.011106903 0.0036762864 -0.050444763
000260 8c e7 f8 bd a9 da b1 3c b7 41 34 3d e6 07 51 3d
       -0.12153539 0.02171071 0.044007983 0.051032923
000270 d5 66 22 be 3f b7 7b bd f9 bd 05 bd 80 ad e9 bd
       -0.1585954 -0.061454054 -0.032651875 -0.114100456
000280 4a 11 92 bd 24 09 e4 bc dd e3 db 3c 26 47 80 bc
       -0.07132204 -0.02783639 0.026842052 -0.015658926
000290 4a 06 be bd 01 99 0f 3d 44 23 79 3d 75 25 4b 3d
       -0.09278543 0.035058025 0.060824648 0.04959627
0002a0 48 ec 08 3c 66 fb 05 3d bb 2d 23 bd 1b 42 b2 bb
       0.008357115 0.032710455 -0.039838534 -0.0054400093
0002b0 a4 53 07 3a ad 4f 5c bd 4f 27 98 bc 73 fa 93 3c
       0.0005162305 -0.053786922 -0.018573431 0.01806376
0002c0 74 2d 07 bd d9 39 73 bd 97 2a cb bc 8b 1e 76 bd
       -0.03300233 -0.05938134 -0.024800582 -0.06008772
0002d0 c1 6f 98 3d c4 fd 9d 3c c4 5f 68 bc 7b 99 af bd
       0.0744319 0.019286044 -0.014182989 -0.08574196
0002e0 a4 ef 9d 3c c7 a9 4c 3d 5c 42 19 3d 12 2c fa 39
       0.019279309 0.0499666 0.0374168 0.0004771655
0002f0 ac 2c 0b 3d f2 78 11 3d 07 15 56 3d fb 5b 2e 3d
       0.03397815 0.035515733 0.052266147 0.04256819
000300 21 7f b5 bc 54 81 df 3c 86 40 53 3d c6 cc 11 3e
       -0.022155346 0.027283348 0.051575206 0.14238271
000310 87 ae cb 3d 91 fd fd 3d 7f 76 a1 3d fa 81 03 3d
       0.09945398 0.124018796 0.078839295 0.032106377
000320 d1 31 02 3d 6c 7a 1e be a9 a1 a2 bb 17 17 57 3c
       0.03178579 -0.15476388 -0.004963119 0.013128064
000330 df 4b d5 3c c1 36 9c 3d 23 b7 18 3d c4 9e 89 bc
       0.026037155 0.07627631 0.037284028 -0.016799338
000340 93 80 39 bc c6 1b 82 3c c2 1e a0 bc cd 08 d3 3d
       -0.011322158 0.015882384 -0.019545916 0.10304413
000350 67 05 89 3c 84 d8 37 3d 5a 79 f0 3c e4 dd 1c 3d
       0.016726209 0.04488422 0.02935474 0.03829755
000360 b5 64 6a bd 9c 8a 65 bd 68 2d 72 bd 32 46 dd 3d
       -0.057224948 -0.05604039 -0.059125334 0.10804404
000370 4e c7 fa 3c 6d 85 d7 3c 04 ed d4 ba 8e e9 30 bd
       0.030612614 0.02630874 -0.0016244953 -0.043191485
000380 0b cd c5 bd f4 bb 7f 3d 05 58 1e be fc 3e 91 3d
       -0.096582495 0.062435105 -0.15463264 0.070920914
000390 96 34 b4 3b 40 f9 47 3d 2e cf aa bc ba 9d f2 3c
       0.005499433 0.048821688 -0.020850744 0.029616226
0003a0 82 0e a0 3d 50 a2 96 3d bc 89 cc bc 12 99 a9 3c
       0.07815267 0.073551774 -0.02496802 0.020702872
0003b0 fa 6a a8 bc a5 77 c3 3c 8d 66 b9 3d 46 34 76 3c
       -0.020558823 0.023860762 0.09052763 0.015027111
0003c0 3d de 94 bc d1 8b b0 bd eb c5 16 bd 8b ae 8e bc
       -0.018172378 -0.08620418 -0.036809843 -0.017417213
0003d0 ad 27 3e 3a d1 e9 dd 3b 6d 42 50 bd b1 d8 e8 3d
       0.0007253837 0.006772258 -0.0508446 0.113694556
0003e0 d4 f0 8e bc 6d 7d bc 3b 2c 65 af 3c 00 d9 b1 3d
       -0.01744882 0.0057522566 0.021410547 0.086839676
0003f0 67 c9 ce bd 41 be 5c bb 7c 3c c3 3c a5 d8 c9 3d
       -0.10097008 -0.0033682736 0.023832552 0.09855775

sequential_1/lstm_1/while/lstm_cell_1/add_1/ReadVariableOp f4 [256]
000000 51 dc 1d bc e3 8c 33 bc 12 af 44 3b 20 28 93 3b
       -0.009635047 -0.010958883 0.0030011577 0.0044908673
000010 3d 5a 1b bc af 19 b5 bb d1 b5 94 ba 38 30 1c ba
       -0.009481964 -0.0055267434 -0.0011345689 -0.0005958113
000020 ec 58 72 3b b1 ec 3c ba 81 7c f2 3a 62 82 80 bb
       0.003697927 -0.00072069006 0.001850024 -0.003921793
000030 b3 9b 2c bb 47 72 f8 3a 12 4f 6c b9 20 77 8e bb
       -0.002633792 0.0018954956 -0.0002253617 -0.004347697
000040 5d 2a da b9 ac 3b 84 3a 12 b6 df bb 73 60 ee 3a
       -0.00041611763 0.0010088584 -0.0068271244 0.0018186703
000050 e2 bb 51 bb 45 44 d7 bb 88 96 98 3b ab d1 29 bc
       -0.0032002856 -0.0065694177 0.0046566166 -0.01036493
000060 87 11 8e 3a 6a d9 18 3c c2 c2 22 bb 81 aa 2e ba
       0.0010838964 0.009329179 -0.0024835323 -0.00066629803
000070 6d 92 80 3b f2 e9 19 ba 7f 50 af 3a da b2 95 ba
       0.0039237053 -0.00058713474 0.001337543 -0.00114211
000080 1b 21 9c bb 55 b6 09 bc 5b 7f 11 bc 00 00 00 00
       -0.0047646887 -0.008405288 -0.008880462 0.0
000090 0f b0 3b bc 6d 40 cc bb 78 6a 89 3b 01 da fc 3a
       -0.01145555 -0.006233266 0.0041936003 0.0019291044
0000a0 9f 17 47 bc 28 64 b1 ba 1f 57 c3 bb 0b c7 4f bc
       -0.012151628 -0.0013533877 -0.0059613134 -0.012681733
0000b0 c7 a7 8e 3b 6b 19 85 b9 00 00 00 00 c3 71 d4 3a
       0.0043534967 -0.00025386675 0.0 0.001620822
0000c0 ff a6 c7 bb 37 3f c5 bb 00 00 00 00 3c f1 b8 bb
       -0.0060929055 -0.0060194987 0.0 -0.0056439918
0000d0 cd 40 a6 bb 0c 86 c1 3c b2 2c 7b bb c1 e2 a6 bb
       -0.005073643 0.023623489 -0.00383262 -0.005092949
0000e0 ec 88 93 39 6a 02 22 bb 1d 8b 53 bb f3 38 b1 bb
       0.0002814004 -0.0024720677 -0.0032278963 -0.0054084
0000f0 3b 6b d2 3b eb 45 2c 3b 3c 35 1e 3c 86 3c 6e b9
       0.0064214743 0.0026286792 0.009656247 -0.00022719995
000100 07 3d 7d 3f 6f 92 7d 3f 4a 96 80 3f de a2 80 3f
       0.98921245 0.99051565 1.0045865 1.0049703
000110 db 9d 7d 3f ae a4 7e 3f a8 2b 80 3f 20 4a 80 3f
       0.99068993 0.9947003 1.0013323 1.0022621
000120 10 38 80 3f a4 55 80 3f f8 ac 80 3f d0 fa 7f 3f
       1.0017109 1.0026135 1.0052786 0.99992085
000130 cd 2c 7f 3f 28 1d 80 3f 29 af 80 3f ce 37 7f 3f
       0.99677736 1.0008898 1.0053455 0.99694526
000140 7f fc 7f 3f ce 46 80 3f ad 50 7e 3f 9f 83 80 3f
       0.99994653 1.0021608 0.9934185 1.0040168
000150 b8 5c 7e 3f bb 30 7e 3f d8 ad 80 3f 6b c9 7c 3f
       0.9936023 0.99293107 1.0053053 0.9874484
000160 b5 65 7f 3f 98 4f 81 3f 9a ac 7e 3f c7 c5 7f 3f
       0.9976457 1.0102415 0.9948212 0.9991116
000170 ab 82 80 3f c3 ac 7f 3f bd 65 80 3f b0 51 80 3f
       1.0039877 0.9987299 1.0031048 1.0024929
000180 ed 1f 7f 3f 1b de 7d 3f d9 cd 7e 3f 00 00 80 3f
       0.9965809 0.9916703 0.9953285 1.0
000190 d5 45 7d 3f c1 d1 7e 3f 38 92 80 3f 93 d2 7f 3f
       0.9893468 0.9953881 1.0044622 0.99930686
0001a0 83 85 7c 3f df 8f 7f 3f f6 f8 7e 3f 01 19 7d 3f
       0.9864122 0.99828905 0.99598634 0.9886628
0001b0 43 ba 80 3f f9 72 7f 3f 00 00 80 3f 84 1c 80 3f
       1.0056843 0.9978481 1.0 1.0008702
0001c0 b1 1e 7e 3f 99 9e 7e 3f 00 00 80 3f 68 8d 7e 3f
       0.9926558 0.9946075 1.0 0.9943452
0001d0 29 60 7e 3f ec b1 81 3f 9f fb 7e 3f a4 e2 7f 3f
       0.9936548 1.0132422 0.99602693 0.999552
0001e0 d7 22 80 3f 5e fd 7f 3f e8 d3 7e 3f 04 e1 7e 3f
       1.0010632 0.9999598 0.99542093 0.99562097
0001f0 8c f9 80 3f 68 c4 80 3f 45 57 81 3f f8 1e 80 3f
       1.0076156 1.0059938 1.0104758 1.0009451
000200 6b f3 23 bc de b1 06 bb 28 6d d6 3b 19 bd 3c 3b
       -0.010006766 -0.0020552794 0.006543774 0.0028799234
000210 41 8e d6 bb c0 1f c1 bb bf be a0 bb fb 08 bb ba
       -0.0065477197 -0.0058936775 -0.004905551 -0.0014269644
000220 63 41 c4 b8 24 0a 7a 38 b9 1c 18 3b d9 98 ce ba
       -9.3581875e-05 5.961409e-05 0.002321048 -0.0015762105
000230 0c 2a 1f 3a 3a d6 87 ba 58 e5 93 39 cd b9 38 bb
       0.0006071634 -0.0010363527 0.000282089 -0.0028186918
000240 de 3c 24 bb a7 05 ac 3b 69 0e c0 bb cf d8 9a 3b
       -0.0025060694 0.0052496972 -0.005861093 0.0047255526
000250 e5 17 c9 bb 82 00 cd bb bc c6 9b 3b a0 99 16 bc
       -0.0061368817 -0.006256164 0.0047539156 -0.0091919005
000260 e6 1e 0d 38 de 44 7f 3b d8 98 b0 bb ac 3a b5 ba
       3.3645796e-05 0.003895096 -0.005389314 -0.001382669
000270 21 90 98 3b 69 07 92 bb b4 30 90 bb d6 fb b1 3b
       0.0046558534 -0.0044564498 -0.004400337 0.0054316325
000280 51 7d e1 bb bf e3 0a bc 42 97 91 bb 00 00 00 00
       -0.006881394 -0.00847715 -0.00444308 0.0
000290 fb 8b 4f bc e7 b1 cf bb fa b0 24 b9 b8 0c 6f ba
       -0.012667651 -0.0063383463 -0.00015706188 -0.00091190217
0002a0 45 ab 5c bc a9 88 bd bb d3 5d d3 bb e2 f7 bb bb
       -0.013468568 -0.0057841134 -0.0064503937 -0.005736337
0002b0 2e c9 66 3a a6 5f 84 bb 00 00 00 00 7d d5 ee ba
       0.0008803782 -0.0040397225 0.0 -0.0018221583
0002c0 e0 51 c0 bb d8 c0 07 bc 00 00 00 00 84 14 c7 bb
       -0.0058691353 -0.008285724 0.0 -0.0060754437
0002d0 52 43 30 bc b9 fd fa 3a 53 f2 72 bb 1d 4c 51 bb
       -0.010758238 0.0019149102 -0.0037070706 -0.0031936236
0002e0 16 39 a6 bb 92 fc c7 bb 41 25 01 bc 32 6f fd 39
       -0.005072723 -0.006103107 -0.007882417 0.00048338767
0002f0 e5 f6 95 3b ed 1f 1c ba 7c 40 04 3c 70 89 dc b8
       0.0045765513 -0.0005955685 0.008072015 -0.00010516017
000300 db 02 1d bc 15 0d c7 bb 7b 6f 0b 3b 3c 30 99 3b
       -0.0095832 -0.0060745575 0.0021276164 0.0046749394
000310 f6 24 20 bc 3d 5f b6 bb a3 fd 7e 39 1c dd 9a 3a
       -0.009774437 -0.0055655525 0.00024317815 0.0011815163
000320 01 d6 e3 3a 7f e2 81 ba 72 90 1a 3c b5 11 9d bb
       0.0017382504 -0.000990942 0.0094338525 -0.0047933706
000330 8c 2e f6 b9 c7 17 25 3b d6 a8 a3 39 cc 87 b5 bb
       -0.00046955456 0.0025191174 0.00031215575 -0.00553987
000340 b4 2b cc b8 ef 38 ca 3a 29 87 d5 bb 0f 53 bc 3b
       -9.7356184e-05 0.0015428344 -0.0065163565 0.005747206
000350 2d 16 6c bb 94 e3 cf bb 65 dc d5 3a 56 b8 3d bc
       -0.003602396 -0.006344268 0.0016316293 -0.011579594
000360 09 95 1a bc 71 40 37 3b 12 7f 18 bb 24 10 ad ba
       -0.009434947 0.0027961994 -0.00232691 -0.0013203663
000370 b8 6d 73 3b 23 89 fa b9 7e da 71 3a d6 a4 4e 3b
       0.0037144255 -0.0004778589 0.0009225978 0.0031531355
000380 e6 e3 68 bb 70 b5 09 bc 0f 95 2b bc 00 00 00 00
       -0.0035536229 -0.0084050745 -0.01047255 0.0
000390 6f 69 35 bc cb e6 ae bb 1e ba 84 3a c7 12 05 3b
       -0.011072501 -0.0053375713 0.0010126268 0.0020305382
0003a0 40 82 43 bc c2 91 88 bb 52 36 73 bb ba bb 61 bc
       -0.0119329095 -0.0041677663 -0.0037111235 -0.013777668
0003b0 7e 91 df 3b d8 5d 28 bb 00 00 00 00 e8 bd 90 3a
       0.006822764 -0.00256907 0.0 0.0011042925
0003c0 4c 57 d9 bb 6c 5a da bb 00 00 00 00 25 ce 84 bb
       -0.006632721 -0.006663611 0.0 -0.0040528947
0003d0 bb c9 d1 bb 52 94 5e 3c ee 69 4c bb 30 9b 38 3a
       -0.006402222 0.013585167 -0.0031191069 0.00070421677
0003e0 1d 4a e2 b9 7f 5b 4e bb 7c ab f3 bb 31 49 c5 bb
       -0.00043161298 -0.0031487641 -0.007436214 -0.006020688
0003f0 c0 46 6e 3b 82 a6 3d 3b c9 22 d0 3b 83 8c 81 3a
       0.0036358088 0.0028938358 0.006351803 0.0009883795

arith.constant26 f4 [512, 64]
000000 d2 04 03 3d a3 00 09 3d 35 38 a8 bc 8f c3 35 bd
       0.03198702 0.033447873 -0.020534614 -0.044375952
000010 26 d3 c1 bd b8 69 3c bd 41 95 9f bb 3c a4 c8 bd
       -0.094641015 -0.04599926 -0.0048700874 -0.0979695
000020 a6 6f ad 3b 77 26 35 3d 30 f6 49 bb 1b 7b 74 3c
       0.0052928505 0.044226136 -0.0030816905 0.014921929
000030 3a e6 89 bc 7a 0e 8b bd 6c a9 9b bb 07 99 66 3d
       -0.016833413 -0.067898706 -0.0047504213 0.056298282
000040 d2 39 f6 bc 5f 97 e2 bd a7 30 9f bd 6b 08 51 bc
       -0.030056868 -0.11064028 -0.077729516 -0.012758355
000050 3c 2e c8 3d 3c 4b be bd 9b 32 e3 bc ab bf 70 3a
       0.097744435 -0.092916936 -0.027734092 0.0009183834
000060 10 3f b6 bc 7c c4 d6 bd 38 74 b6 bd bf 32 8a bd
       -0.022246867 -0.10486695 -0.08908886 -0.0674796
000070 9b 63 a3 bc d5 e8 23 bd 76 a9 75 3d 73 09 b5 3d
       -0.019944957 -0.040016968 0.059976064 0.08839693
000080 95 91 ec 3c 8d a3 c4 bd 3e 6a c4 ba dc ac cc bd
       0.028878013 -0.09601507 -0.0014985276 -0.09993908
000090 d8 3d 2f 3d 27 be 3e bd 4d 61 a6 bd a9 0d 41 3c
       0.04278359 -0.046568062 -0.081240274 0.011783042
0000a0 df 02 18 bd d0 29 a7 bc 8f c3 b3 bd f3 4a 9b bd
       -0.037112113 -0.02040568 -0.08777534 -0.07582655
0000b0 4a 34 15 3c 21 6e 68 3d 06 05 86 bd 66 00 21 3d
       0.009106705 0.056745652 -0.06543927 0.03930702
0000c0 e9 ff 2b bc e3 ff ad bd aa 50 b2 3d 5a 70 a1 bd
       -0.010498025 -0.08496072 0.08706792 -0.078827575
0000d0 cd 09 41 bd 15 53 f2 3d d8 85 87 3c 66 ab ac 3d
       -0.047128487 0.11832253 0.016543314 0.08431129
0000e0 29 b3 8b 3d f4 da 86 3d a2 c2 c9 bd 17 03 44 3d
       0.068212815 0.06584731 -0.098515764 0.04785451
0000f0 76 90 b1 bc ca 1e 5e 3d f4 77 6e bc e0 9a 6c bd
       -0.02167533 0.05422858 -0.014554966 -0.057764888
000100 a2 f8 9f bc 9c 68 00 bd 08 f7 4b 3d c5 be ca bc
       -0.019527737 -0.031349763 0.049796134 -0.02474917
000110 40 41 2e bd f3 c8 cd bd 16 50 9f 3d 1d c6 98 bd
       -0.042542696 -0.10048094 0.07778947 -0.07459662
000120 dc d1 bb 3d 0e 3a 36 bd c6 e6 85 3d 0d ad 6e 3c
       0.09170887 -0.04448896 0.06538157 0.014567626
000130 23 83 8e bd 5c 88 09 3d 0a 0a 4b bc 89 a9 22 3d
       -0.06958606 0.033577308 -0.01239253 0.039712463
000140 b8 09 8c bc de 2a e2 3c 52 3e 21 bd 25 70 4a 3d
       -0.017094478 0.027608331 -0.039366074 0.049423356
000150 a7 a8 97 3d b7 5d e5 bc ee 81 54 bd 48 79 1f 3d
       0.07405215 -0.027998788 -0.051881723 0.038934022
000160 29 fa 69 bd 2e 19 86 bd 22 48 8e 3d ff 8d 64 3d
       -0.057123337 -0.065477714 0.06947352 0.05579948
000170 fc 98 94 bd 7b 6c 28 3d 1f 9b 28 bd 05 a8 ba bb
       -0.07255742 0.04111908 -0.04116356 -0.005696299
000180 e7 c3 5f 3b a2 37 f0 3c 26 a6 89 3d e0 55 e1 bb
       0.0034143867 0.029323403 0.067211434 -0.006876692
000190 ea 50 f8 3b 61 7c e3 bc 83 f6 d0 3d 1a 3f b8 bd
       0.007578005 -0.02776927 0.102032684 -0.08996411
0001a0 21 51 61 3d 63 af a6 bd a7 e9 d1 3d a1 81 c5 bd
       0.05500901 -0.08138921 0.10249644 -0.096438654
0001b0 bb 4f 27 3d 35 e6 b9 bd b8 11 84 3d 32 ba d2 3c
       0.04084752 -0.09077112 0.06448692 0.02572355
0001c0 82 36 a2 3d 27 70 c0 3d f4 5b 51 3d 20 37 38 bd
       0.07920553 0.09396391 0.051113084 -0.044974446
0001d0 09 e9 17 bc 33 c0 9e 3d 8e 5e 3f bd b8 51 a9 bd
       -0.0092718685 0.07751503 -0.046721034 -0.0826754
0001e0 98 24 b6 bd 8c 63 79 3d 73 03 65 3d 00 72 35 bc
       -0.088936985 0.06088595 0.055911493 -0.011074543
0001f0 13 cb 92 bc 57 63 54 bd 4a cb 18 3d 57 62 9e bd
       -0.017919099 -0.05185255 0.037303247 -0.077336006
000200 b0 49 44 3c 36 5a 39 bd 27 bb 37 3c ab e8 cc 3d
       0.011980459 -0.045252047 0.011214054 0.100053154
000210 87 89 4d 3d 6b b2 8d bd 67 33 70 bd 96 f7 7c 3d
       0.050179984 -0.06918796 -0.05864277 0.061759554
000220 53 6a ac 3c 0f a3 a1 bd 7f 88 93 3d ce fc d0 3b
       0.021046793 -0.07892429 0.07203769 0.006377793
000230 20 52 ad 3d 14 49 ba bd 14 d1 9c bd 49 ce 89 bc
       0.0846293 -0.0909597 -0.07657066 -0.016821997
000240 38 75 9b 3d 7d 55 6a 3d 4f 76 af bd 81 83 d5 bc
       0.07590717 0.057210434 -0.085674874 -0.026063683
000250 28 26 45 bd 44 ba 2a bc a2 ea 77 bd f7 db 6f bd
       -0.04813209 -0.010420386 -0.060526498 -0.058559384
000260 ca 05 28 bb 08 9d 9e 3d e8 bb 3c bd ed 68 38 bc
       -0.0025638216 0.07744795 -0.04607764 -0.011255485
000270 ed d7 0d bc 99 2b b4 3d 59 39 b0 bc a2 47 c8 3d
       -0.008657438 0.08797378 -0.02151172 0.09779288
000280 0d 55 bd 3d 45 5a 64 bb f2 e1 a6 3c 00 a0 4e 3d
       0.09244738 -0.0034843844 0.020371411 0.050445557
000290 26 79 cb 3d 20 c5 ac 3d 28 27 9a 3c 51 fd 94 3c
       0.099352166 0.08436036 0.0188175 0.018187197
0002a0 2f d8 68 3d 0e 2b 16 bd 87 92 d0 3d c6 92 80 3d
       0.056846794 -0.036662154 0.10184198 0.06277995
0002b0 e8 a7 cb 3d 00 1f 5b bc d0 d3 d0 bc 1c 63 85 bd
       0.09944135 -0.01337409 -0.025491625 -0.06513044
0002c0 2c 7c a2 3d 04 f5 81 bd 4a bf bc bd 95 6a 5d bc
       0.0793384 -0.06345561 -0.09216173 -0.013514181
0002d0 71 71 8c 3d 1f 3d ec 3c ba c4 ca bb ab 89 ad 3d
       0.06857575 0.028837739 -0.0061880024 0.08473524
0002e0 7a ec 07 bd 58 c2 98 bd 32 c4 5a 3d c3 5c eb bc
       -0.033184506 -0.07458943 0.053409763 -0.028730756
0002f0 2a 24 81 bd de ac e6 3c 23 56 80 bd f9 6d af bc
       -0.06305726 0.028158601 -0.06266429 -0.021414744
000300 9f fe 44 bd ea e4 be 3d 70 69 02 bd b4 8c 66 bc
       -0.048094388 0.09321006 -0.031838834 -0.014071632
000310 22 e0 b6 bd b8 aa 13 3d a3 73 96 3d ab 6e 93 3d
       -0.08929469 0.036051482 0.07346275 0.071988426
000320 ae 32 ce bd 92 8b 9d 3c 69 c6 d7 3d 4d 23 50 3d
       -0.1006826 0.019231591 0.105358906 0.050814915
000330 d5 41 d0 bc 67 3f 85 3d 25 e4 a5 bb dd 7a 2b bd
       -0.025422016 0.06506234 -0.0050625973 -0.04186522
000340 14 9c 49 bc 33 fd 9c 3d bc ab 4e bd c4 fc 29 3d
       -0.012305278 0.076654814 -0.050456747 0.04150082
000350 f2 83 1f 3d 99 3d 93 3d 7e fc bd 3d d9 de 17 bc
       0.038944192 0.07189483 0.09276675 -0.00926944
000360 8a 29 8d bd 8e 3a bf 3d 02 49 46 3c 60 2b 84 bd
       -0.068926886 0.0933734 0.012102367 -0.064535856
000370 ad 5c 5d bc 51 7e 08 3d 6e 11 d3 3c 49 ae 4b bd
       -0.013510865 0.03332359 0.025765147 -0.04972676
000380 b9 c4 b1 3c de 88 00 bd 03 b8 e2 bc 00 9e 9a 3a
       0.02170025 -0.031380527 -0.027675634 0.0011796355
000390 1c a1 61 bc c4 ee 8a bd 3f b3 41 bd b8 42 51 bd
       -0.013771322 -0.06783822 -0.047290083 -0.05108902
0003a0 fd f1 ba 3d 59 46 87 bd c6 86 12 3c a4 26 2d 3c
       0.09128187 -0.066052146 0.008943265 0.010568295
0003b0 13 70 be 3d f1 a9 87 3d 20 58 e1 3c c7 bd 88 3c
       0.0929872 0.066242106 0.027507842 0.016692055
0003c0 9a c4 91 bd 70 98 f2 3c b4 43 b2 bd 71 cc c6 3d
       -0.07117577 0.029613703 -0.087043196 0.09706963
0003d0 0c a8 80 bd 02 17 93 bd 92 d5 72 bd 23 2f 3a bd
       -0.062820524 -0.07182123 -0.059285708 -0.04545511
0003e0 2c 0a 93 3d aa fc 0f bd a0 59 98 3d b9 57 a9 3d
       0.071796745 -0.03515307 0.074389696 0.08268685
0003f0 02 dd a4 3d ac 71 d9 bc 62 e3 90 3d 9b 6b 4e bd
       0.080499664 -0.02654346 0.0707462 -0.05039559
